marketing_ab_testing/my_model.pt (torch, 3480 bytes, 3 tensors)

weight f4 [5, 2]
0	0xbe70bcad	-0.23509474
1	0x3deff9ff	0.11717605
2	0xbdbfe80a	-0.0937043
3	0x3e1c7600	0.15279388
4	0xbec97132	-0.39344174
5	0xbec6e002	-0.3884278
6	0xbc86ba47	-0.016446246
7	0x3efa3e9c	0.48875892
8	0xbd5d1b57	-0.05398115
9	0xbf0f91c9	-0.56081825

bias f4 [5]
0	0xbea0e8af	-0.31427523
1	0x3ed72555	0.4202067
2	0xbe67a965	-0.22623213
3	0x3f1e635e	0.6187037
4	0x3ebb11d0	0.36537027

weight f4 [1, 5]
0	0xbdacab65	-0.084311284
1	0xbd7142e5	-0.058901686
2	0x3e1ae962	0.15128091
3	0xbedbde20	-0.42942905
4	0x3d6a101b	0.057144266
